Assets/Brains/Well Trained/CarBrainPPO.onnx (onnx, 185719 bytes, 13 tensors)

66 f4 [63]
00000000: 3dd3 8b3e 0fd3 8b3e 3038 8b3e 06d2 883e
00000010: dcd1 883e b131 893e 0d2f 8f3e e42e 8f3e
00000020: 8257 8d3e 858c 873e 5e8c 873e 12ed 883e
00000030: 5b89 923e 3689 923e ff9d 8f3e 534d 893e
00000040: 244d 893e d3f1 8b3e 710a 953e 480a 953e
00000050: 2250 913e edce 8d3e c1ce 8d3e 20ef 933e
00000060: 8677 9b3e 6377 9b3e a3e3 953e 8270 963e
00000070: 5870 963e deaa a03e 2727 a43e 0927 a43e
00000080: ff67 9d3e 9c73 9c3e 7773 9c3e 6db9 ab3e
00000090: 5600 b23e 4100 b23e bd3a a93e 289c 9f3e
000000a0: 059c 9f3e 7ec9 b33e 4e5f c23e 315f c23e
000000b0: 47a6 b73e 7434 a23e 5334 a23e 6f34 b83e
000000c0: ad54 d43e 9654 d43e e6ef c73e 45b4 a53e
000000d0: 23b4 a53e d57d b93e 76b7 e33e 66b7 e33e
000000e0: 9a07 d63e da55 ae3e bc55 ae3e 73d3 ba3e
000000f0: d7de ef3e c9de ef3e 4d77 e13e
0.273096 0.27309462 0.27191305 0.26722735 0.2672261 0.26795724 0.27965584 0.27965462
0.27605826 0.26474395 0.2647428 0.2674337 0.2862042 0.2862031 0.2805023 0.26816806
0.26816666 0.27332935 0.2910953 0.29109406 0.2838145 0.27696934 0.27696803 0.28893375
0.30364627 0.30364522 0.29275236 0.29382712 0.29382586 0.3138036 0.3206112 0.3206103
0.30743405 0.30556953 0.30556843 0.33539906 0.3476588 0.3476582 0.33052626 0.31173825
0.3117372 0.35114664 0.37963337 0.3796325 0.35869047 0.31680644 0.31680545 0.35977504
0.41470852 0.41470784 0.39050215 0.32364097 0.32363996 0.36228815 0.44475907 0.4447586
0.41802675 0.34049875 0.34049785 0.36489448 0.468497 0.4684966 0.44036332

69 f4 [99]
00000000: 6694 6f3e fa93 6f3e f17d 8e3e ab0b 753e
00000010: 420b 753e 1be8 883e 27e6 2e3e 89e5 2e3e
00000020: a81b 843e 57a1 553e d8a0 553e b5fb 763e
00000030: e187 e73d f485 e73d 16c6 5b3e cdd1 403e
00000040: 40d1 403e ec8b 643e a296 853d 4293 853d
00000050: 950a 273e af2b 293e 0b2b 293e d545 533e
00000060: f08f 033d 1c82 033d 0fda f13d 6dcd 0b3e
00000070: a4cc 0b3e 0640 3a3e a337 983c b107 983c
00000080: 1287 b83d 7a53 cb3d 4851 cb3d 197d 1a3e
00000090: 58c6 873c 8c90 873c 1f4a 9b3d 091e 913d
000000a0: eb1a 913d 33fa fe3d 3928 b13c fafe b03c
000000b0: 6299 8e3d 039e 6c3d 5696 6c3d d4a1 df3d
000000c0: f462 da3c 8841 da3c 171c 893d 9e22 643d
000000d0: a91a 643d 0b69 d13d 0ddc b63c 29b4 b63c
000000e0: 871f 833d c477 673d ed6f 673d b2b9 c83d
000000f0: 8189 9f3c bc5b 9f3c 352a 7a3d fe4c 503d
00000100: 4544 503d 84e2 c23d 185d a63c 3131 a63c
00000110: f6cd 703d d2f2 633d dfea 633d 7160 ca3d
00000120: d1e2 f53c 2dc5 f53c 0c52 8c3d b716 4b3d
00000130: c40d 4b3d e8f7 ca3d 057f c23c 7059 c23c
00000140: 8e45 863d 05a5 363d 0e9b 363d 6d57 cb3d
00000150: e2f4 c33c a4cf c33c e2a4 813d 8074 583d
00000160: 216c 583d 0167 d23d 06ee aa3c 4fc3 aa3c
00000170: 4783 743d e843 6b3d 313c 6b3d eae7 e23d
00000180: 2452 8c3c 151e 8c3c a884 6f3d
0.23396453 0.23396292 0.2783046 0.23930232 0.23930076 0.26739582 0.17079984 0.17079748
0.2580235 0.20862328 0.20862138 0.24119456 0.11305214 0.113048464 0.21462283 0.18830033
0.18829823 0.22319001 0.065228716 0.06522228 0.1631263 0.1652057 0.16520326 0.20632108
0.03211969 0.032106504 0.118091695 0.13652582 0.13652283 0.18188486 0.018581217 0.018558355
0.090101376 0.09928031 0.099276125 0.15086783 0.01657407 0.016548418 0.07582497 0.07085807
0.07085212 0.124500655 0.021625625 0.021605957 0.06962849 0.05776788 0.05776056 0.10919538
0.026658513 0.026642576 0.06694811 0.055697076 0.055689488 0.102251135 0.022321725 0.022302704
0.06402498 0.0565107 0.056503225 0.098010436 0.019474747 0.019452922 0.061075408 0.050854675
0.050846357 0.09515861 0.020308062 0.020287128 0.05879017 0.055651493 0.055643912 0.09881676
0.030015381 0.030001247 0.06851587 0.04958221 0.049573675 0.099105656 0.023742208 0.023724288
0.06556235 0.04459097 0.044581465 0.099287845 0.02392048 0.023902722 0.06330277 0.052845478
0.052837495 0.10273553 0.020865452 0.020845084 0.05969551 0.057437807 0.05743045 0.1107939
0.017129011 0.017104188 0.05847612

72 f4 [60]
00000000: 1ebe b540 a893 603d 8693 3141 dd00 9a41
00000010: 2938 6c3f 8c8b 9a3e 57d9 b540 3bb7 603d
00000020: a6b5 3141 1826 9a41 d879 6c3f 2ad4 9a3e
00000030: 66ee b540 1de3 603d ead9 3141 444b 9a41
00000040: 5bbb 6c3f 551c 9b3e 63fe b540 9d11 613d
00000050: 2d00 3241 6f70 9a41 95fc 6c3f 3e64 9b3e
00000060: 4f0a b640 0a44 613d 2a28 3241 8194 9a41
00000070: 9b3e 6d3f ecab 9b3e cd12 b640 cd74 613d
00000080: c751 3241 79b8 9a41 3581 6d3f 76f3 9b3e
00000090: f618 b640 d0a4 613d d37c 3241 b1dd 9a41
000000a0: 0bc4 6d3f 393b 9c3e 531d b640 f7d7 613d
000000b0: 15a9 3241 b202 9b41 c505 6e3f a882 9c3e
000000c0: a020 b640 2305 623d 7dd6 3241 fc27 9b41
000000d0: a740 6e3f abc9 9c3e a623 b640 5136 623d
000000e0: e404 3341 ff4d 9b41 f07a 6e3f a510 9d3e
5.6794577 0.054828316 11.098516 19.250422 0.92273194 0.3018459 5.6827807 0.054862242
11.106848 19.2686 0.9237342 0.30239993 5.6853514 0.054904092 11.115702 19.28675
0.9247338 0.30295053 5.687303 0.054948438 11.125043 19.3049 0.9257291 0.30349916
5.6887584 0.054996528 11.134806 19.322512 0.92673653 0.30404603 5.689795 0.05504303
11.144965 19.340075 0.9277528 0.30459183 5.690547 0.055088818 11.155475 19.358248
0.9287726 0.30513933 5.6910796 0.0551376 11.16628 19.376316 0.92977554 0.30568433
5.6914825 0.05518068 11.177365 19.394524 0.930674 0.3062261 5.6918516 0.05522758
11.188694 19.413084 0.9315634 0.3067676

action_model._continuous_distribution.log_sigma f4 [1, 2]
00000000: 6119 023f ff80 e13e
0.50819975 0.4404373

action_model._continuous_distribution.mu.bias f4 [2]
00000000: a943 723d 9e2e 4f3c
0.059146557 0.012645392

action_model._continuous_distribution.mu.weight f4 [2, 128]
00000000: 5fce 713d 999d 81bd 0dbd 703d 6181 773d
00000010: 1152 db3c df87 9abc 906c 7bbd 175a a03c
00000020: 886c 3d3d 334d 5b3d 56e3 0f3d de92 70bd
00000030: 6b30 ba37 c14c ca3b a49a 8b3c a68c 23bd
00000040: 98ef 903c 78f5 96bd 6fa8 453c 2b04 553d
00000050: 58b5 a33c e392 d23b 2893 4abd 5b07 bf3c
00000060: ac98 9d3d 69e6 1ebd 0fb6 093d 80ec 9ebc
00000070: 9e43 493d 42ff 80bc b564 ca3d 2f80 0fbd
00000080: d9b1 57bd 194e 0f3d 2ab8 c33c 2032 2b3c
00000090: 252c 07bd d97b 893d ddc2 9d3b ca64 acbd
000000a0: df50 8a3d 47ab 8cbd e80d 153d fafe 98bd
000000b0: 23f5 21bd 37f0 713d 1b27 453d e88e 9f3c
000000c0: 2bad 9b3c 0953 da3d d8de 013d a93f 19bd
000000d0: 3cdd ab3c 2d75 873d fda8 983d 6497 a0bd
000000e0: b17f 8e3d 4cc7 77bd 5588 4cbd 4e23 203d
000000f0: 5c15 073d ac8f df3b 925b 0c3d 0ae6 64bd
00000100: 5798 24bd 25bc e23c 4f65 583d 2263 9b3a
00000110: ff9b 90bd af0a 563d 64f9 3dbd bc67 473d
00000120: af0f d63a 9223 f43c a453 cabc b045 173d
00000130: d1b8 123c c232 b93c fe40 f9bc b3b4 073c
00000140: a392 61bd 8677 893c 6151 13bd 58e4 9e3d
00000150: a226 d03c 9475 1abd 0dcb 09bd e19c 85bd
00000160: 9f71 24bd d699 123d a152 b03c 3c2b 833d
00000170: 6d0d 543c 2dd0 8fbd 513e 7abb 37d1 013d
00000180: 3ddb 953c 6993 a5bc 590f 0ebd f2e2 253d
00000190: 6098 a2bb 324b acbc f5f9 8a3d a8b0 233d
000001a0: 6028 493d bc18 043d 5796 26bd 1544 2e3d
000001b0: b9f3 a53c aae9 aabb 3bad 3e3d 76e2 1cbd
000001c0: a482 303d 7a21 a9bc 5fba 35bc 34ca 2d3c
000001d0: c14b ac3a e239 69bc 411c 103c 47de 71bd
000001e0: 427c 1a3d 4211 a13c a979 543a 2fff 423d
000001f0: 476e a63d db77 2d3d cf9c de3c a89c 233d
00000200: bce0 843c 8db5 2e3d f3f2 99bc d373 41bd
00000210: b7de 293d 03e9 bf3c 9b08 3f3c 71ef a43d
00000220: b14a 083d 8d64 5abd f98c b83c 83c5 0d3c
00000230: bbf8 923d 81cd 7b3d 911f 823d fb0b 36bd
00000240: e58b 95bd 24d7 6abc daec ba3d 30d7 5bbc
00000250: 7b13 8abc 17fc 873d 2ead 8abc 454d c5bc
00000260: 8825 553c e28b b4bc 63a9 553c cf90 80bd
00000270: 838d d6bb 4ebb 7c3c dc5a 343d 4ce1 8b3d
00000280: ac9f b6bd b3da 1cbd b88d 933d 368e 6b3d
00000290: 3ed6 19bd 1f83 63bd 2443 a83d 46d9 91bc
000002a0: c76c 0abd 4ba9 0abd 67e5 aebd 6ac0 54bb
000002b0: 0fe3 533d 7b58 f3bc d45c 823d 4fff 1b3d
000002c0: f2e8 a8bc 2c17 043c 0023 9a3c e08b 00bd
000002d0: 562e cd3c b306 2bbd 6363 8c3b a232 5abc
000002e0: b683 debc 921a cd3c 7e73 2abc bd56 3e3d
000002f0: d087 06bd 919f 323d 3f63 4d3d 4b0b d1bb
00000300: 730f efbc a0c4 b1bd 41b7 be3c 7a82 763d
00000310: f68c 3e3d 1af9 34bb 9838 b73c 7d9e e7bc
00000320: 8f75 d2bd 9fd2 06bd 0745 07bd 803b 27bd
00000330: aefe 383d 3fa4 84bd 3e28 cdbd ea95 5bbd
00000340: 5116 18bc abf5 d5bb 979d b6bc 3908 58bc
00000350: b808 c1bb 201b 1f3d 103a 3d3d 4ac8 5d3b
00000360: 6d55 d0bd 7b27 8f3c 2624 463d 496a 833d
00000370: a1ab 903c d4e9 2fbd eee1 7bbd 645b b23c
00000380: 723c c03d f7eb a83c bb5f 82bc 3426 17bc
00000390: 1c74 4ebd 48ba 0fbc d7aa 82bd 9e1c d6bb
000003a0: 9853 e2bc c3d7 fcbc 19dc f33b 10b4 063d
000003b0: 2b4a 633d 8e2a 733d e7c4 82bd 5fb7 aabc
000003c0: a838 663d 0f60 533d 362a 803d 7a54 a33d
000003d0: 6e62 76bd a78f 033c 1470 0c3d cde6 07bb
000003e0: 5468 ea3c 7757 363d 416d e43c c5de 72bc
000003f0: 46bc fbbc 96e4 d8bb e3d2 61bd b877 5e3d
0.0590347 -0.063288875 0.058774043 0.06042612 0.02677253 -0.018863617 -0.06138283 0.019574208
0.04624608 0.05354042 0.035128914 -0.058733813 2.2195474e-05 0.0061737006 0.017041512 -0.039929055
0.017692372 -0.07371038 0.0120640835 0.052005928 0.019983932 0.0064262017 -0.049456745 0.023318937
0.076951355 -0.038793955 0.03362089 -0.019399881 0.04913675 -0.015746716 0.098824896 -0.035034355
-0.052659843 0.03498659 0.023891527 0.010448962 -0.033001084 0.06713075 0.0048144893 -0.084176615
0.06753706 -0.06868606 0.036390215 -0.07470508 -0.03954042 0.059066977 0.048132997 0.019477323
0.019003471 0.10660369 0.03170666 -0.037414227 0.020979516 0.066141464 0.07454107 -0.078413755
0.06957949 -0.0604928 -0.049934704 0.03909617 0.032979354 0.006822547 0.034267016 -0.055883445
-0.040184345 0.027677605 0.05283099 0.0011855105 -0.07061004 0.052256282 -0.046380416 0.048682913
0.0016331578 0.029802117 -0.024698086 0.036931694 0.0089551965 0.022607211 -0.030426499 0.008282828
-0.055071484 0.016780626 -0.03596628 0.07758397 0.025409047 -0.037709787 -0.03364091 -0.06524063
-0.04014742 0.03579124 0.021523776 0.06404731 0.012942654 -0.07022128 -0.0038184116 0.031693663
0.018293018 -0.020211892 -0.034682605 0.040499635 -0.004962012 -0.02103195 0.06785957 0.039963394
0.04911077 0.03225015 -0.04067072 0.042545397 0.020257818 -0.005215843 0.046551924 -0.038301907
0.04309334 -0.020645846 -0.011091798 0.010607291 0.0013145135 -0.014234992 0.008795799 -0.05904987
0.037716158 0.01966155 0.0008105287 0.047606643 0.081265025 0.04235063 0.027174382 0.03994432
0.016220443 0.04265361 -0.018792605 -0.0472296 0.041472163 0.023426538 0.011659767 0.08053482
0.033274356 -0.05331855 0.022528159 0.0086530475 0.07176348 0.06147528 0.06353677 -0.04444502
-0.073020734 -0.01433352 0.09127207 -0.013418004 -0.016854992 0.06639879 -0.016928282 -0.024084697
0.013009436 -0.022039358 0.013040873 -0.0627762 -0.006547631 0.015425516 0.044031963 0.06830081
-0.08917174 -0.038294505 0.07204765 0.05750867 -0.037557833 -0.05554497 0.08215931 -0.0178038
-0.033795144 -0.033852857 -0.08539849 -0.003246332 0.05173021 -0.029705277 0.06365362 0.038085278
-0.02061889 0.008062165 0.018815517 -0.031383395 0.025046509 -0.041754436 0.0042843088 -0.013317736
-0.027162414 0.025037084 -0.010403512 0.04646944 -0.032844365 0.043609206 0.050143477 -0.00637952
-0.029182171 -0.08680081 0.023280742 0.060183026 0.04652115 -0.0027614296 0.022365853 -0.028273815
-0.10276329 -0.032915708 -0.033024814 -0.040828228 0.045164756 -0.0647664 -0.10017441 -0.053609766
-0.009282664 -0.00652953 -0.022291942 -0.013185554 -0.005890932 0.038844228 0.04619795 0.0033841305
-0.10172544 0.01747488 0.048374318 0.06416757 0.017659964 -0.042947605 -0.06149476 0.021772094
0.09386529 0.02062033 -0.015914788 -0.009225417 -0.0504037 -0.00877244 -0.06380241 -0.006534173
-0.027627751 -0.030864602 0.007442009 0.032886565 0.055490654 0.059366755 -0.063852124 -0.020839391
0.056206375 0.05160528 0.06258051 0.07975097 -0.060152464 0.008029855 0.034286574 -0.0020736933
0.0286142 0.044517007 0.027884128 -0.01482362 -0.030729424 -0.0066190464 -0.055132758 0.05431339

network_body._body_endoder.seq_layers.0.bias f4 [128]
00000000: ca23 95bb b2f3 3bbd 5794 393c d828 1e3c
00000010: 988f b9bc 124d b73c 93e3 843d c999 863d
00000020: 3b7c 5cbc 3035 493d 4b2f 533d c8a7 0fbd
00000030: 29d4 8d3d 08ba 903b 1dfb 89bd b807 243d
00000040: 0af0 423d 5e77 ec3c fd82 483c af01 b2bb
00000050: 1d3f 8b3d 3989 4abd 757f 5abd 6025 a7bc
00000060: 6413 65bd e0e8 5f3d 64cf 1f3d ae93 ceba
00000070: e49d 8b3d 67bd 343d eb94 ad3d f495 053d
00000080: 17b8 7f3d 6965 dcbc 2468 093d 5e72 013d
00000090: a871 8dbb d4be 3ebd c0b1 1f3d 6290 a23d
000000a0: 17e6 893c a962 183d ad42 2e3d f464 0f3b
000000b0: cc0e 243d 60b6 e0bc b78a 83bd 8ae9 abbb
000000c0: 36ba 7b3d 4f02 0ebc 16e2 32bc c99e 13bd
000000d0: e1c9 d2bb e1a7 513d bfcf 1abc c190 483d
000000e0: 6c3a 903d 0f20 ebbc 694d 473d a493 543d
000000f0: 74c4 45bd 5839 d93c 5e13 433d 82e7 663d
00000100: e0ab 8c3d 6cad 1dbd d231 863c 54bf e1bc
00000110: 2724 013d e5b9 8b3d 7bcc d23c 81fa 603d
00000120: 6c61 a4bd 016f e73c 8462 a1bc 0e18 933d
00000130: 9933 443d 2331 cebc dabc 28bd 27c0 413d
00000140: 8cc7 6d3c 1999 67bc 9e08 903c 1ad9 ceb8
00000150: 9122 8f3b 54bd 0f3d f5cc a83c 3f9f 9e3d
00000160: 8ac0 40bd bb61 29bd 1155 5d3d 371e b33c
00000170: d8ca 57bb 156c d43c 3aff 2b3d 1a57 433d
00000180: 5eb6 933d daa9 9c3c 67ce 8a3c b3c3 adbb
00000190: d81d 7b3d dcf3 343d 863a 7a3d 66f9 633d
000001a0: 8336 41bd 9a6c 9f3c 7b7a 55bd 6cf2 84bd
000001b0: 56fe 42bd 4984 72bc be4f 9b3c dc28 a03d
000001c0: cad5 9f3c 7e02 46bd c49d 5fbd 40fc 973d
000001d0: 2b77 7f3d 062d 04bd 0901 863c 5ef1 22bc
000001e0: 1a85 933c 5ccf 333d edb4 193d b472 903d
000001f0: e5e2 fabc 73da b53c 796d 383c ba32 3abd
-0.0045513855 -0.045886703 0.011326871 0.009653293 -0.022651479 0.022375617 0.06488719 0.06572301
-0.013457353 0.04912299 0.051558774 -0.035072118 0.06925232 0.004416708 -0.06737349 0.040046424
0.0475922 0.028865512 0.012238261 -0.0054323296 0.06799147 -0.049447272 -0.05334421 -0.020403564
-0.055926695 0.054665446 0.039016142 -0.0015760565 0.068172246 0.04412594 0.084756695 0.03261371
0.06243142 -0.026903825 0.033546582 0.03160321 -0.0043165274 -0.046568707 0.038987875 0.07937695
0.016833348 0.037203465 0.042544056 0.002188024 0.040053174 -0.027430713 -0.06422942 -0.005246346
0.06145688 -0.008667543 -0.010918161 -0.0360401 -0.0064327572 0.051185492 -0.009448945 0.048966173
0.07042393 -0.02870181 0.04865781 0.051898614 -0.048283055 0.026516601 0.047625892 0.056373127
0.0686872 -0.038495466 0.016381178 -0.027557053 0.03152862 0.06822566 0.02573227 0.0549264
-0.08026394 0.028251173 -0.019700296 0.071823224 0.04790077 -0.025169915 -0.041195728 0.04730239
0.014512908 -0.014135622 0.017582234 -9.863284e-05 0.0043681343 0.035092667 0.020605544 0.077452175
-0.04705862 -0.04135297 0.054036204 0.021864993 -0.00329273 0.025930444 0.04199145 0.04769049
0.07212518 0.01912396 0.016944123 -0.00530287 0.061307758 0.044177875 0.06109097 0.055657767
-0.047171127 0.019460965 -0.05211876 -0.06491551 -0.047605835 -0.014802047 0.018958922 0.07820293
0.019511122 -0.04834222 -0.054593816 0.0742116 0.062369507 -0.0322695 0.016357915 -0.009945242
0.018007804 0.043898925 0.03752606 0.07053128 -0.03062577 0.022198891 0.011256569 -0.045458533

network_body._body_endoder.seq_layers.0.weight f4 [128, 222]
00000000: 67cc cdbc 9ba7 4c3b 514d 2cbd 764b 353d
00000010: c5fb 72bd e7de ab3c 1c0d 71bd 7b91 4a3c
00000020: e625 babd 70dd 273e 8c9c 1e3d 20df b13c
00000030: e238 02ba 7390 9f3d 9de8 3a3d 2e93 a7bc
00000040: 439d af3c 5447 4c3c fa87 a43d b97f 09bd
00000050: 9bc5 efbc f057 bbbd eb4b 11bd 866c 573e
00000060: 5025 963d 3ba4 4f39 50dd 28bc 0c91 cbbc
00000070: d61c 0fbe 7835 ed3d 0023 273e 217f b1bc
00000080: 181a c0bd 812d 693d 4aa7 6c3d dbf2 a93d
00000090: 00f5 e0bc 80ef 953d 06e5 503d 557d 18bb
000000a0: 4f98 273c 7ec2 c33d 3d0f b7bd 79eb 0bbd
000000b0: fc65 1c3d 0550 1c3d 245a 1dbd e9c0 4a3d
000000c0: ae4e 88bc a13a 763d 5677 acbc 9e50 5ebb
000000d0: c6d3 91bc a1ec 80bd 82b7 b53d be48 00be
000000e0: 2062 02be 658b 8ebe 03bc 5a3c e20d 063e
000000f0: a177 6d3d 2db3 ec3b 3d69 063b 4bf6 3fbd
00000100: fa9a bdbd 419a 04be eb7f 85bd 1bcb c53c
00000110: bf1c 103d d8c7 5f3d e009 4c3d 008f b63c
00000120: 1868 0c3e fd9d 053d c036 75be 4b20 553d
00000130: aaee aebd 3f1c 0d3d d0ea af3d ae50 f0bd
00000140: 4169 1dbe 747b cc3c e2d7 363e c3d9 da3d
00000150: 4237 cebc 9f66 2bbd ad84 6fbe 7729 2a3c
00000160: f9e8 abbc 5590 0f3e 06c6 ba3d 454a 05bd
00000170: 1007 95bd 5055 9d3d ec64 e83d 9d86 b83d
00000180: aeb0 cdbc a761 ab3d 1a1c 83bd 4677 e43d
00000190: b289 323d f748 fe3d bb5d e4bd f772 fabd
000001a0: da5a b43c 78ac 133e 1283 cb3c e0a7 d13d
000001b0: f459 b33d e05f 9cbd 3b52 13bd 3b30 6abd
000001c0: 5ef5 0e3e 7a70 233e ef9d 07bd 77a6 5cbd
000001d0: d6af 2cbd 6df5 97bd 116b 23bd 312e d43b
000001e0: 35bd a5bd 5dd7 573e 30b1 1d3d 0089 4cbd
000001f0: 0425 5a3c 45a8 373e 51e9 01be f9c3 fcbc
00000200: 740a 3fbc 81a0 45bb 18e6 803d c1b2 bf3d
00000210: 5591 8dbd 5e2a 913d e15d e03d 1d8f 883d
00000220: f52d b8b9 1262 6ebd a89b bdbd a0a7 b13d
00000230: 820b 013d bc05 d3bc 5170 0c3e 0ef3 e8bd
00000240: ed07 8abc 947d f73c 2343 4abd 91e0 01be
00000250: 6292 b0bc 37a4 693d b3d4 aa3b 5d73 df3b
00000260: 53b5 0e3e 6ef4 86bd 5481 0dbe 96b6 2d3d
00000270: 6396 0ebc 8794 7fbb 5855 b23d c8e0 743d
00000280: d640 6bbd 2ab9 63bd 5261 873d 501b e4bb
00000290: 804b 483b cb03 eb3c 1284 913c f748 583d
000002a0: b300 b2bd 72c1 dc3b 39af 023d 4206 c73d
000002b0: 32fc a23d 5aad 0d3b 220c 733d 48d9 d4bc
000002c0: 7a68 fc3d 12f5 b8bc 3a46 063d 6942 73bd
000002d0: 6fe6 bb3c 5410 10bb ee23 533c 9cf4 af3d
000002e0: b5a6 3b3d af23 223d 3fc7 143d 3808 08bd
000002f0: c3b8 b8bd 6517 d83c e42b 503c 8fef 933c
00000300: 990e 7e3d fbea 3cbd 1002 e8bc 70d8 b33c
00000310: 19ea b93d 5ecd 4e3d f2f8 a23c 283d 69bd
00000320: 6e5e c13b 83d1 abbb df3f abbc 55b7 d13c
00000330: 1b1a 0dbd e916 6fbd 34e9 e3bc 7e95 383c
00000340: adcd 4f3d e954 04bc 9d91 cfbd 734b 1d3e
00000350: b031 65bd beee 093d c73a e23c c26f 903d
00000360: 91d7 9b3d cae1 9dbd 50ab 4ebd 2731 083e
00000370: c240 2d3e c67d 0f3d 0470 f0bc f4fe 013e
00000380: 8cf0 d9bd 93a1 86bd 4c28 ce3d 3a26 473d
00000390: fa5f c8bc b8b0 1a3c e89f aebc 61d9 d7bc
000003a0: c902 923d f2fe 083b 7a38 cbba 89e1 f5bc
000003b0: b08f 7a3d 4073 3dbd 8a68 533d 7f63 0b3d
000003c0: e77c 823b bd99 c83d 76cb ad3d 6c1c 6a3c
000003d0: 7d9e cbbb 67f4 953d 16f2 c5bc 43d6 bf3d
000003e0: 8cd3 243d ef57 c3bc 1762 68bd 1d14 45bd
000003f0: a10b 17bb 3035 143d 0241 4d3d d4c5 cabc
-0.02512188 0.003122783 -0.042065922 0.04426142 -0.059322137 0.020980312 -0.058850393 0.012363787
-0.0908926 0.16393065 0.038723513 0.02171284 -0.00049675826 0.077912234 0.045631994 -0.020455923
0.021437293 0.012468178 0.08033748 -0.03356907 -0.02926903 -0.09147632 -0.03547279 0.21037492
0.073313355 0.00019802239 -0.010306671 -0.024849437 -0.13975844 0.11582464 0.16321945 -0.021667065
-0.09379977 0.05692816 0.057776727 0.08298274 -0.027460575 0.073210716 0.050999664 -0.0023268063
0.010229184 0.09558581 -0.08938453 -0.03416011 0.038183197 0.03816225 -0.038416043 0.04950038
-0.01663908 0.060114507 -0.021052998 -0.0033922563 -0.017801177 -0.062951334 0.08872892 -0.12527749
-0.12732744 -0.27840725 0.01335049 0.13091233 0.057975415 0.007223508 0.0020509504 -0.046865743
-0.09258075 -0.12949468 -0.06518539 0.0241447 0.035183664 0.054633945 0.049814105 0.022284985
0.13711584 0.032621372 -0.23946667 0.05203275 -0.08541615 0.034450766 0.08589709 -0.117341384
-0.15372182 0.02496121 0.1785579 0.10686066 -0.025172833 -0.041845914 -0.23390456 0.010385863
-0.020985113 0.14019902 0.09119801 -0.032541532 -0.07276738 0.07682288 0.11347374 0.090100504
-0.025108662 0.08368235 -0.06401844 0.11155562 0.043588348 0.12416261 -0.1115069 -0.12228959
0.022015978 0.1442126 0.024842773 0.10237098 0.087573916 -0.07635474 -0.035967093 -0.057174902
0.13960788 0.15960875 -0.0331096 -0.05386969 -0.042159878 -0.07419858 -0.03989703 0.006475233
-0.08092729 0.21078248 0.038499057 -0.04993534 0.013314489 0.17935283 -0.1268666 -0.030855166
-0.011660207 -0.0030155482 0.06293887 0.093602665 -0.069124855 0.07088159 0.10955406 0.06667922
-0.00035129456 -0.058198996 -0.09258205 0.0867455 0.031505115 -0.02575957 0.1371472 -0.11374484
-0.016849482 0.030211248 -0.049380433 -0.12683322 -0.021554176 0.057041373 0.005213344 0.0068191723
0.13936357 -0.0658959 -0.13818866 0.042410456 -0.008702847 -0.0038998441 0.08707684 0.05978468
-0.05743488 -0.055596508 0.06610359 -0.0069612637 0.003056258 0.028688332 0.017763171 0.05280396
-0.086915396 0.0067369277 0.031905387 0.097179905 0.07958259 0.0021618218 0.059337743 -0.025982514
0.12324615 -0.022577796 0.032781817 -0.059389506 0.022937028 -0.0021982389 0.012886984 0.085915774
0.04581328 0.03958481 0.03632283 -0.033210963 -0.090196155 0.026378343 0.012705777 0.018058566
0.06202564 -0.046122532 -0.028321296 0.021953791 0.09077854 0.050488822 0.019894097 -0.05694309
0.0059011495 -0.0052434816 -0.02090448 0.025600115 -0.034448724 -0.05837146 -0.02782116 0.01126611
0.050733257 -0.008076885 -0.101351954 0.15360813 -0.05595559 0.033674948 0.027615918 0.07052566
0.076094754 -0.077090815 -0.050456345 0.133 0.16919234 0.035032056 -0.029350288 0.12694913
-0.10641584 -0.065737866 0.1006628 0.04862044 -0.024459828 0.009441547 -0.021316484 -0.026348772
0.071294375 0.0020903912 -0.0015504502 -0.03001477 0.061172187 -0.04625249 0.051613368 0.034030434
0.0039821747 0.09794948 0.08486073 0.014289003 -0.0062139616 0.07322007 -0.024163287 0.09367039
0.04024081 -0.023845641 -0.05673417 -0.048114885 -0.0023047703 0.036183536 0.050110824 -0.024752535

network_body._body_endoder.seq_layers.2.bias f4 [128]
00000000: d53f 823d 41d5 e9bc 3aea 153d ea85 383d
00000010: 7161 323d 1a07 dabc c48f 36bd e64a f53c
00000020: f07e 763d 171a 183d 0b4b 663d 9e25 4cbd
00000030: 834a be3c 39e1 cf3c 5fcb f43c 5bf8 12bd
00000040: 61e7 8bbc 5472 18bd e4e8 4d3c fe49 763d
00000050: 4452 b13c ca61 953c ece5 15bd 647d 433c
00000060: 82c1 793d e973 28bd 21d9 4d3d 36cc 86bc
00000070: 9bd2 883d a7ed 2abd c5ad a03d 9431 4cbc
00000080: b35d e2bc c3e3 d43b 8a36 7d3c a3d2 cc3a
00000090: 249b f1bb c6fd 7e3d 98b8 dc3c a7aa 54bc
000000a0: 2724 893d b2ff 9bbc 3148 203c 682c 05bd
000000b0: bdc3 9bbc 45fe 473d 8efc 483d 1c50 0b3c
000000c0: a2f6 7139 39a3 9b3d afd4 153d 71ff 5fbd
000000d0: 917f 283d c80e 833d 4fe1 8e3d c1aa ffbc
000000e0: 35ab 693d e8ba 17bd cdf1 1bbd f7fd 543d
000000f0: 4590 053d db17 603c 520f 3e3d 600b 50bd
00000100: b543 2ebd 3126 0cbc 3e70 713d 24e5 a73c
00000110: bd9e 1fbd 79b7 7f3d a26a f0bc fdf1 323d
00000120: 33fe 81b9 de7d 813c 208e 9fbc 3d0e 173d
00000130: 9ed2 323c 4825 823b cb46 bdbc 00b8 a4bc
00000140: 536e 183c 0774 a83b dc59 0fbd ff6e 823d
00000150: 3f99 cb3c 5d41 f0bc 2065 c4bc f836 4bbd
00000160: 1b83 06bd 3fdc 673d 3e92 c93c 6ac7 723d
00000170: cb6c d03c 48f3 ecbc e096 f8bc 2438 453d
00000180: d3cb 333d 4bdb 22bd f587 54bd b4b7 323d
00000190: 5050 0fbb 8420 84bd 707d 6f3d dea3 473d
000001a0: b3c2 503d 9e49 003d 2a08 77bc 7080 533d
000001b0: 0f72 063d 60ae d2bb 6332 033d b1f2 64bd
000001c0: 2b9d 3f3d 720d c9bc 79cb 2c3d b10f d93c
000001d0: d116 ebbb 4d8d 7fbb bb62 51bc 73f7 26bd
000001e0: 5273 863d 3445 243d 5270 c8bc a595 733d
000001f0: 0ccd 843d 9947 193d b48d f73c 0f6b 633d
0.06359831 -0.02854407 0.03660033 0.045049585 0.04354996 -0.026614714 -0.0445707 0.02994294
0.06017965 0.037134256 0.05622391 -0.049840562 0.02322889 0.02537595 0.029882131 -0.03588138
-0.017078103 -0.037218407 0.0125677325 0.06012916 0.021645673 0.018235106 -0.036596224 0.011931751
0.06097556 -0.041126166 0.0502559 -0.016454797 0.06680795 -0.04173055 0.07845644 -0.012462992
-0.02763257 0.006496878 0.015454898 0.001562674 -0.0073732305 0.062253736 0.02694349 -0.01298014
0.06696349 -0.019042823 0.009782837 -0.032513052 -0.019014234 0.048826475 0.04906898 0.008502986
0.00023075429 0.075994916 0.036579784 -0.054686967 0.04113728 0.06399304 0.06976568 -0.031209351
0.05704804 -0.037043482 -0.038072396 0.052000012 0.03260829 0.013677563 0.04640133 -0.050792098
-0.04254504 -0.008554027 0.058944933 0.020495005 -0.038969744 0.062430833 -0.029347721 0.04368781
-0.0002479419 0.015807088 -0.01947695 0.036878813 0.010914473 0.0039717294 -0.023105046 -0.02010727
0.009303647 0.0051407847 -0.034997806 0.06368827 0.024853347 -0.029328043 -0.023974001 -0.04961297
-0.032839876 0.056606527 0.024605867 0.059272207 0.025442502 -0.0289246 -0.03034538 0.048149243
0.043895554 -0.039759915 -0.05188747 0.043632224 -0.0021867938 -0.06451514 0.058469236 0.04874026
0.05096693 0.031320207 -0.01507763 0.05163616 0.03282362 -0.0064294785 0.032030474 -0.05589551
0.046780746 -0.024542544 0.042186234 0.02649674 -0.007174351 -0.0038994134 -0.012779887 -0.04076333
0.06564964 0.04010506 -0.024467621 0.059468884 0.06484422 0.037421796 0.030218937 0.05552202

network_body._body_endoder.seq_layers.2.weight f4 [128, 128]
00000000: 308c 31be c6ab a5bd 0095 893b fced 2ebc
00000010: fd6f 22bd a4ec 86bd b41b 2f3c d8eb 113d
00000020: ff33 c63d 7764 0e3d ac49 123e 24a5 653d
00000030: 15fe 4bbd 177d d0bc cf78 93bc 346a 7cbc
00000040: 0496 863d 51e2 8cbd e432 483d 977a 8ebe
00000050: 4493 43bc 3e7e f2bc 10f1 7fbd 830f 8a3d
00000060: 211d 573c cb5f 833e bceb 753c 42ce 18bd
00000070: 543b 03bd 4a48 b13d 33b4 273e 939e 693e
00000080: 7e3f 963d 0e63 bbbc bbde 9e3c afd5 0c3e
00000090: eac6 453c aa18 c4bb a5c7 30be 5bd0 ac3d
000000a0: 06f0 98bd 7c64 5c3d c7db a0bd f9b2 b03d
000000b0: 8a91 803d d6c1 0d3e 98f7 29be 048d c33d
000000c0: ed15 e03d 89e9 8abd 3b7c 8939 06b5 d0bd
000000d0: 26ac 563d 1212 ee3c 43b1 2c3d da47 92bd
000000e0: 2097 ad3d ffa6 47be 0048 09be e5e2 253d
000000f0: 7031 773d 4186 81bd 1415 c23c b357 1c3e
00000100: f9dd a23c 1ca0 6abe fb4d f73d e620 443c
00000110: 4ffe 073d 3351 b53c 2d3f 373e 88ea e13d
00000120: 9cec 49bb f5d4 f33c 3e19 b8ba 9226 033d
00000130: b45d a93c e9b6 bdbd b07a 8f3d c156 033b
00000140: e59f 4f3e a0eb f3bc ca39 163e 9411 5e3c
00000150: a979 39be 78d6 cb3d a93c 463e 88aa dd3d
00000160: 736a ef3d af20 83bd e4f5 d83a 0d3e 1d3d
00000170: 3288 21bd eb22 db3d 9c28 adbd d027 393e
00000180: ca89 143e 3987 f3bd 7507 a53c 7302 02be
00000190: e082 67bd 52c3 543d 0997 96bd e7d8 5c3e
000001a0: 60b5 1abc 1da0 763e e738 02bd 3d63 90bd
000001b0: 7d2e 253d 06a6 c5bd d45c 8fbd 3bcd 5abc
000001c0: e6fc 4f3e 5626 ba3a 261b 083d 23df 253c
000001d0: 1601 6dbd 5727 333c e57b 033e 08fe 513d
000001e0: acce 763d dd60 5ebd 4609 873b faa5 e23d
000001f0: d451 3c3d 8c6d 07be 0e3b 3abd 7b1c 28bd
00000200: 7a9c adbd 0359 b5bd f7cd 083d 7bce 9fbd
00000210: 7841 cbbc fe29 5b3d 0e1d 21be 2e17 97be
00000220: c039 803d 5ef9 3ebd a2da df3d e993 50bd
00000230: fb04 a93c de33 8e3c 6859 e03b fb58 c7bd
00000240: f190 eb3c dadd 40bd 61be 7d3d f867 25be
00000250: 63c8 0ebe 3b55 5c3d cbda a83c 26e2 c5bd
00000260: 5902 813d 5790 3ebe ac39 45bd da70 813d
00000270: 04bc 06bd 2ed0 bcbd 2b4f 5b3c f8e0 0cbe
00000280: 7b45 8cbc 679f 823e 18e9 25bd a6d8 21bb
00000290: 2bbf debd 2959 953c 9446 96bd 1e67 9e3c
000002a0: 5cc0 ee3d e7cf 0d3d cb6b cb3c bf19 efbd
000002b0: f739 313e 983e 45bd 8318 00be 996a 11be
000002c0: 269e 22bc ab87 f43b 68d1 b3bc 30af 813d
000002d0: 2e7a 863c b126 cfbd 4bcb 8e3b 33a2 64be
000002e0: 8f85 2cbe e54c 4b3c b668 353d 0774 433d
000002f0: 20e7 7b3d ef9a b43d d310 5abd 3f33 bbbd
00000300: 16d2 87bd db35 43be bb1b 64bd 4765 cc3c
00000310: 0f9f 053e a7b4 8f3c 879b 853b 578e 3abe
00000320: c208 993d cc09 95bd 1957 89bd c146 293d
00000330: f60d f53c 8016 a43d 6d48 9fba bd50 cc3d
00000340: 927c 0c3c 81c0 33be b0e9 86bd e0eb 383c
00000350: c3f1 803c 1a5e e43d 1363 1bbd 255e db3d
00000360: cf89 a9bd fc5a 7c3c c772 1ebe 9bb7 b5bd
00000370: 8026 c8bd dc05 2fbd 2fbe a2bc be49 2e3d
00000380: 0b7d 18be d861 86bd caa5 21bc 0795 83bd
00000390: 4e4f 83bd da1e f2bc d8ee 51be 2f95 a93d
000003a0: 4e5a 993d fc1c e9bc 4e56 103e 532e 8d3d
000003b0: 646e 6c3d 2f18 ab3d 4ed4 29bd 7d3d 05bd
000003c0: 03ab 10be ba59 0d3d 0585 8b3d 545f 503d
000003d0: ba18 3bbd 976c 793d 418c 2fbd f6d1 9a3c
000003e0: e32e fcba 628a c13d 8295 01bd daac 26bd
000003f0: 1844 3abe c372 203d 863b 19be 5ada e0bd
-0.17338634 -0.08089404 0.0041986704 -0.010676857 -0.03965758 -0.06588104 0.010687757 0.03562531
0.09677886 0.03476378 0.14285916 0.056065693 -0.04980286 -0.025450272 -0.018001942 -0.01540618
0.06571582 -0.06879104 0.048876658 -0.27827904 -0.011936966 -0.029601213 -0.062485754 0.0674124
0.0131295035 0.25659022 0.015009817 -0.037306078 -0.032039 0.08656366 0.16377334 0.22814398
0.07336329 -0.022874381 0.019393316 0.13753389 0.012071351 -0.0059843855 -0.17263658 0.08438178
-0.07467656 0.053806767 -0.07854419 0.08627886 0.062777594 0.13843474 -0.16598356 0.09548381
0.10941682 -0.067828245 0.00026223235 -0.101907775 0.052410267 0.029061351 0.042161237 -0.07142611
0.084760904 -0.19497298 -0.13406372 0.040499587 0.06034988 -0.06324435 0.023691691 0.1526783
0.019881235 -0.2291264 0.120754205 0.011970734 0.033201512 0.022133445 0.17895193 0.110310614
-0.0030811196 0.029764632 -0.0014045609 0.032019205 0.020674564 -0.09263403 0.07005823 0.0020040723
0.20275839 -0.02977544 0.14670482 0.013553996 -0.18112816 0.09953016 0.19359078 0.10823542
0.116902255 -0.06402718 0.0016552773 0.038389254 -0.039436527 0.107000194 -0.08455011 0.18081594
0.14505687 -0.11891026 0.020145157 -0.12696247 -0.056521297 0.051944084 -0.073530264 0.21567117
-0.009442657 0.24084516 -0.031792548 -0.07050178 0.040327538 -0.09650807 -0.070001274 -0.013354595
0.20311317 0.0014202099 0.033229016 0.010124001 -0.057862364 0.010934672 0.12840231 0.051267654
0.06025569 -0.054291595 0.0041209785 0.11066814 0.045976475 -0.13225383 -0.045466475 -0.041042786
-0.08477111 -0.08854868 0.03339955 -0.07803055 -0.024811491 0.053506844 -0.1573374 -0.29509872
0.06261015 -0.046624534 0.10930373 -0.050922308 0.020632258 0.017358717 0.0068465956 -0.097337686
0.028755637 -0.047086574 0.061949138 -0.16152942 -0.13943629 0.05379222 0.020612141 -0.09662275
0.06299276 -0.18609749 -0.048150703 0.06320353 -0.03289415 -0.092193946 0.013385574 -0.13757694
-0.017122975 0.2551224 -0.0405055 -0.0024695783 -0.10876306 0.018230991 -0.073376805 0.01933628
0.116577834 0.0346221 0.024831673 -0.116748326 0.17307268 -0.048155397 -0.1250935 -0.1420082
-0.009925401 0.007462462 -0.021950439 0.063322425 0.016415682 -0.10114802 0.0043577305 -0.22327499
-0.16847824 0.01240847 0.044289313 0.047718074 0.061499715 0.08818614 -0.0532387 -0.09140634
-0.066318676 -0.19063513 -0.05569051 0.024950637 0.13048957 0.017542196 0.004077378 -0.18218361
0.074723735 -0.07277259 -0.06706066 0.04132724 0.029913884 0.08012104 -0.0012152322 0.09976337
0.008574622 -0.17553903 -0.06587541 0.011286706 0.015740281 0.11150761 -0.03793628 0.10711316
-0.08278238 0.015402552 -0.15473472 -0.088729106 -0.09772968 -0.042730197 -0.019866077 0.042550795
-0.1489145 -0.06561631 -0.009866187 -0.06424909 -0.064116105 -0.029555727 -0.20501268 0.08280408
0.074879274 -0.028456204 0.14095423 0.06893601 0.057722464 0.08354222 -0.041462235 -0.032529343
-0.14127736 0.034509398 0.06812481 0.050872162 -0.045677878 0.060894575 -0.042858366 0.018898945
-0.0019240048 0.094502226 -0.031636722 -0.040692188 -0.18190038 0.039171945 -0.14964113 -0.10979147

network_body.observation_encoder.processors.0.normalizer.running_mean f4 [63]
00000000: 7c38 6b3f 793b a63d 8481 243e 7a2f 6c3f
00000010: b883 9e3d 10ce 223e 591b 6a3f c124 af3d
00000020: 85b8 263e b995 6c3f a951 9b3d 5c56 243e
00000030: e0f4 683f 2459 b83d 990e 2a3e 6808 6c3f
00000040: 57bc 9f3d d0c4 2b3e 2c12 683f 246e bf3d
00000050: 7a69 2d3e 4e91 6a3f 0f75 ab3d b3da 3c3e
00000060: 8cb1 653f 4173 d23d 2396 343e ff90 673f
00000070: 1e77 c33d 1c57 593e c238 623f 7639 ee3d
00000080: 15c4 413e bd50 653f da79 d53d 4196 7a3e
00000090: 89fe 5b3f cc05 103e e0c2 573e 7c13 643f
000000a0: a763 df3d b2aa 8e3e c74c 533f 49cc 323e
000000b0: f905 763e 0f07 633f 4ec7 e73d d1f4 9e3e
000000c0: 4381 473f a6fa 613e 7ba1 8f3e 8391 613f
000000d0: 8c73 f33d 4333 ad3e d77b 3a3f 3108 8b3e
000000e0: 63ae a63e 94bb 5d3f 5111 093e 4f76 bc3e
000000f0: 6db7 2c3f ea90 a63e 72e1 be3e
0.91883063 0.08116812 0.16065031 0.92259943 0.07739967 0.15898919 0.9144798 0.08551932
0.16281326 0.9241596 0.07583935 0.16048568 0.9099865 0.09001377 0.16607131 0.92200327
0.07799595 0.16774297 0.9065273 0.093471795 0.16934767 0.9162797 0.083719365 0.18442802
0.8972404 0.10275889 0.17635398 0.9045562 0.09544204 0.21224636 0.88367856 0.116320536
0.18922456 0.8957632 0.10423632 0.2447138 0.85935265 0.14064711 0.21070433 0.8909223
0.10907679 0.27864605 0.8253903 0.17460741 0.24025716 0.88682646 0.11317311 0.31046155
0.7793161 0.22068271 0.28052887 0.8811266 0.11887273 0.33828172 0.72845215 0.27154687
0.32554922 0.86614347 0.13385512 0.36809012 0.67467386 0.32532436 0.37281376

network_body.observation_encoder.processors.1.normalizer.running_mean f4 [99]
00000000: 591f 713f 3b0a 6e3d 259e da3e 5163 703f
00000010: 2fc9 793d a3d1 d13e fd4c 783f d260 f63c
00000020: 7038 c73e 6a53 743f a2c8 3a3d 006b b43e
00000030: 75af 7c3f 711e 543c f625 a43e 9093 763f
00000040: 8bc6 163d 9f75 953e f6e7 7e3f 8cf6 8b3b
00000050: b76f 823e bccf 783f 7c07 e63c 2156 743e
00000060: 6bbc 7f3f 0824 873a 4965 513e db22 7b3f
00000070: e2a2 9b3c 5a9d 453e 62e9 7f3f 0230 b439
00000080: 1d94 2e3e a573 7d3f 0916 233c 0bfb 1f3e
00000090: 42ee 7f3f 3d2b 8f39 2406 173e 65b5 7e3f
000000a0: 5b4d a53b 97e6 053e 5de1 7f3f bb69 f439
000000b0: f58e 063e a224 7f3f 3153 5b3b deea ec3d
000000c0: 76d1 7f3f 55fc 393a 0e04 f53d 1f34 7f3f
000000d0: 84d3 4b3b 9550 db3d 4fdf 7f3f 1e3c 023a
000000e0: 1088 e23d 192e 7f3f ecd8 513b d026 d03d
000000f0: 2ce7 7f3f 3907 c639 9432 d43d 2d56 7f3f
00000100: 69d1 293b 1d81 ca3d 0be5 7f3f 086c d739
00000110: e680 c93d 6e34 7f3f d77d 4b3b 7cc5 cb3d
00000120: fec4 7f3f 2df0 6b3a 77d3 c83d 885e 7f3f
00000130: 5066 213b 7bcb cb3d 0ddb 7f3f d767 133a
00000140: d39c c23d 6d7d 7f3f 2875 023b 3f31 cd3d
00000150: 8dda 7f3f d2a2 153a 2486 be3d 8c48 7f3f
00000160: d36b 373b 0a01 d23d 98e3 7f3f eb76 e339
00000170: bb4f bb3d 1c27 7f3f edd0 583b faf4 da3d
00000180: d2ec 7f3f 3afb 9839 f388 b93d
0.9418846 0.058115225 0.4269878 0.93901545 0.06098288 0.40980253 0.96992475 0.030075464
0.38910246 0.9543978 0.045601495 0.35237885 0.98705226 0.012946711 0.32060212 0.9631891
0.03681044 0.291913 0.99572694 0.004271334 0.25475857 0.9719198 0.02807974 0.2386098
0.9989688 0.0010310421 0.20448793 0.9810006 0.018998567 0.19298306 0.9996549 0.00034368044
0.17048688 0.99004585 0.009953984 0.15623109 0.9997293 0.000273073 0.14748436 0.99495536
0.005044622 0.13076244 0.9995325 0.00046618082 0.13140471 0.9966527 0.0033466334 0.11568235
0.9992899 0.00070947903 0.11963664 0.99688905 0.0031101415 0.10708729 0.99950117 0.00049680646
0.11061108 0.99679714 0.0032020165 0.10163653 0.99962115 0.00037770884 0.103612095 0.9974087
0.0025912172 0.09887908 0.99958867 0.00041088485 0.098390386 0.99689376 0.0031050348 0.099497765
0.9990996 0.00090003276 0.09805959 0.9975362 0.0024627633 0.0995092 0.9994362 0.00056230783
0.09502568 0.9980076 0.0019906256 0.100191586 0.9994286 0.0005708161 0.09302929 0.9972007
0.0027987852 0.102541044 0.99956656 0.00043385415 0.09146067 0.9966905 0.0033083514 0.10691257
0.99970734 0.00029178878 0.09059324

network_body.observation_encoder.processors.2.normalizer.running_mean f4 [60]
00000000: 59b2 c93d 0e8e a3bc 3f51 0cbe 801e 6440
00000010: 214d 393d 74a5 cf3d 9386 ba3d 04c9 a3bc
00000020: a236 f5bd d88e 6440 d751 323d d481 d03d
00000030: 9578 ad3d 74ff a3bc aa8c d0bd 1714 6540
00000040: 3255 2b3d 405d d13d e85e a23d 7937 a4bc
00000050: a6cc aabd 6f8a 6540 b857 243d c838 d23d
00000060: 8f30 993d d068 a4bc 0016 84bd 2b05 6640
00000070: ee4a 1d3d 2a14 d33d 71e2 913d b59d a4bc
00000080: d5f8 38bd b56c 6640 2732 163d a3ef d33d
00000090: 403a 8c3d bad0 a4bc bb74 d0bc 53af 6640
000000a0: b61b 0f3d 61cc d43d fa38 883d 3103 a5bc
000000b0: 67ed b0bb 55e7 6640 400b 0a3d c5a8 d53d
000000c0: 298e 853d da39 a5bc 0af8 743c 6de0 6640
000000d0: cd95 103d 9e84 d63d f0bc 833d 2170 a5bc
000000e0: 13bc 113d 1880 6640 9e90 173d ec60 d73d
0.0984847 -0.019965198 -0.13702868 3.5643616 0.04523957 0.101389796 0.09107699 -0.019993313
-0.11973311 3.5712185 0.04353508 0.10181013 0.08470265 -0.02001927 -0.101830795 3.5793512
0.041829295 0.10222864 0.07928258 -0.020045983 -0.08339815 3.5865743 0.040122718 0.102647364
0.07479965 -0.02006951 -0.06449509 3.5940654 0.038401537 0.1030658 0.071232684 -0.020094732
-0.04515918 3.600385 0.036668923 0.103484415 0.06847048 -0.02011906 -0.025446286 3.604451
0.034938537 0.10390545 0.066514924 -0.020143123 -0.0053993943 3.6078694 0.033702135 0.10432581
0.065212555 -0.020169187 0.014951715 3.6074479 0.03529911 0.104745135 0.06432521 -0.020195069
0.035579752 3.6015682 0.037003152 0.10516533
